…
Sat 29 Apr 2023 10:21:48 INFO  Used data_folder: /ssd1/holdenhu/Amazon2014_dataset/Amazon_Beauty/dataset_mmsr/thre-0_filt-core_core-5_split-[ratio]_ratio-0.2__imagec-30_textc-30_k-3-resnet-t5
Sat 29 Apr 2023 10:22:06 INFO  VLGraph(
  (local_agg): HeteAttenLayer(
    (a_params): ParameterList(
        (0): Parameter containing: [torch.cuda.FloatTensor of size 128x1 (GPU 0)]
        (1): Parameter containing: [torch.cuda.FloatTensor of size 128x1 (GPU 0)]
        (2): Parameter containing: [torch.cuda.FloatTensor of size 128x1 (GPU 0)]
        (3): Parameter containing: [torch.cuda.FloatTensor of size 128x1 (GPU 0)]
    )
    (cat_projection): Linear(in_features=256, out_features=128, bias=True)
    (projection): Sequential(
      (0): Linear(in_features=128, out_features=128, bias=True)
      (1): ReLU(inplace=True)
      (2): Linear(in_features=128, out_features=1, bias=True)
    )
    (global_local_projection): Sequential(
      (0): Linear(in_features=128, out_features=128, bias=True)
      (1): ReLU(inplace=True)
      (2): Linear(in_features=128, out_features=1, bias=True)
    )
    (fc1): Linear(in_features=128, out_features=256, bias=True)
    (fc2): Linear(in_features=256, out_features=128, bias=True)
    (norm1): LayerNorm((128,), eps=1e-05, elementwise_affine=True)
    (norm2): LayerNorm((128,), eps=1e-05, elementwise_affine=True)
    (fc_out): Linear(in_features=128, out_features=128, bias=True)
    (dropout_atten): Dropout(p=0.2, inplace=False)
    (leakyrelu): LeakyReLU(negative_slope=0.1)
  )
  (embedding): Embedding(12162, 128, padding_idx=0)
  (pos_embedding): Embedding(150, 128)
  (node_type_embedding): Embedding(4, 128)
  (glu1): Linear(in_features=128, out_features=128, bias=True)
  (glu2): Linear(in_features=128, out_features=128, bias=False)
  (projection): Sequential(
    (0): Linear(in_features=128, out_features=128, bias=True)
    (1): ReLU(inplace=True)
    (2): Linear(in_features=128, out_features=1, bias=True)
  )
  (fusion_layer): Linear(in_features=384, out_features=128, bias=True)
  (loss_function): CrossEntropyLoss()
)
Sat 29 Apr 2023 10:22:06 INFO  -------------------------------------------------------
Sat 29 Apr 2023 10:22:06 INFO  epoch: 0
Sat 29 Apr 2023 10:22:06 INFO  start training.
Sat 29 Apr 2023 10:24:15 INFO   Loss:   9609.607
Sat 29 Apr 2023 10:24:15 INFO  start predicting.
Sat 29 Apr 2023 10:24:54 INFO  Current Result: Recall@5: 2.2627      MMR@5: 1.0878   NDCG@5: 0.4671
…
